runs/generalization_run_2.pt (torch, 478641 bytes, 256 tensors)

weight f4 [16, 1]
0	0xbe203de9	-0.15648617
1	0xbece1593	-0.40250835
2	0x3ee77081	0.4520302
3	0xbf03cafd	-0.5148161
4	0xbf288d04	-0.6584017
5	0xbe933aac	-0.287557
6	0xbda0a5e9	-0.07844145
7	0x3f759790	0.9593439
8	0x3ec2e389	0.3806422
9	0xbecc6861	-0.39923385
10	0xbf26cd0e	-0.6515664
11	0x3f135563	0.57552165
12	0x3f0db59c	0.5535524
13	0x3e8abc75	0.27096906
14	0x3b5d3bce	0.003375757
15	0xbea3c34f	-0.31984946

bias f4 [16]
0	0xbf006ad2	-0.50162995
1	0xbe58bd1a	-0.21165887
2	0xbf3f8551	-0.748128
3	0x3d969879	0.073533006
4	0x3e0700f7	0.13183962
5	0xbeab2fdf	-0.3343496
6	0x3eed5285	0.4635202
7	0x3f43c5f8	0.7647395
8	0xbf4292d8	-0.76005316
9	0x3e6c1890	0.23056245
10	0x3f0b5ec4	0.54441476
11	0x3f46c6b5	0.7764695
12	0x3edc81df	0.43067834
13	0x3f6edf85	0.93309814
14	0x3ef2b882	0.47406393
15	0xbf688021	-0.9082051

weight f4 [16, 1]
0	0xbe8adbeb	-0.2712091
1	0x3f1eac3d	0.61981565
2	0xbf854877	-1.041274
3	0xbf762b8b	-0.9616019
4	0x3ed4d007	0.41564962
5	0x3f062105	0.52394134
6	0xbf29d169	-0.6633516
7	0xbee35303	-0.4439927
8	0xbf4324da	-0.76228106
9	0xbf54b64d	-0.8309067
10	0xbc2f943f	-0.010716497
11	0x3f23c12a	0.6396662
12	0x3d1c938c	0.03822665
13	0x3f09dc99	0.5385223
14	0xbf416997	-0.7555174
15	0xbeea7958	-0.45795703

weight f4 [16, 1]
0	0xbf742fcc	-0.9538543
1	0xbf284cc6	-0.65742147
2	0x3f732f8c	0.94994426
3	0xbe37a8fe	-0.17935559
4	0xbe82536c	-0.2545427
5	0xbe8fd5c5	-0.2809278
6	0x3f5eafed	0.8698719
7	0xbf03ce1e	-0.51486385
8	0xbea67b1a	-0.32515794
9	0x3f2170bf	0.6306266
10	0x3f1cb6b3	0.61216277
11	0xbe311202	-0.17292026
12	0xbe66fd12	-0.22557476
13	0x3ecece8f	0.40391967
14	0x3f5c4d8d	0.86055833
15	0x3eb096ca	0.34490043

bias f4 [16]
0	0xbf40a668	-0.75253916
1	0x3f65f837	0.8983187
2	0x3eed2075	0.46313825
3	0xbea23f32	-0.3168884
4	0x3f4cffe6	0.8007797
5	0x3eec96c5	0.46208778
6	0x3cc9ea5a	0.02464788
7	0x3eff1ee9	0.4982827
8	0xbf0f2396	-0.55913675
9	0xbeaccc62	-0.33749682
10	0xbf022a53	-0.5084583
11	0xbf2984a8	-0.6621804
12	0xbe8c19c1	-0.273634
13	0xbe621ddf	-0.22081707
14	0xbeddb778	-0.43304038
15	0xbf5e403d	-0.8681677

weight f4 [16, 1]
0	0x3f1c3191	0.6101313
1	0x3f2e7f87	0.6816334
2	0xbf719e76	-0.9438242
3	0xbf0f8712	-0.56065476
4	0xbef9498c	-0.48688924
5	0x3e4463b8	0.19178665
6	0x3ef5608c	0.47925222
7	0x3ef95dc4	0.4870435
8	0x3f3f20d6	0.7465948
9	0x3ea456d9	0.3209751
10	0x3f43e8b1	0.76526934
11	0xbf38fae4	-0.7225783
12	0xbd97bc61	-0.07408977
13	0x3f0d1529	0.5511041
14	0x3e88405e	0.26611608
15	0xbf38d6db	-0.72202843

weight f4 [16, 1]
0	0xbef6d1a6	-0.48206824
1	0xbe88f42b	-0.26748785
2	0x3ec68b2f	0.38778064
3	0xbe68dace	-0.22739717
4	0xbf3c47ea	-0.7354723
5	0xbe87b3a6	-0.26504248
6	0xbef42398	-0.47683406
7	0xbeba15e1	-0.36344817
8	0x3eab27f4	0.3342892
9	0x3eac5f87	0.33666632
10	0x3f12a53b	0.5728337
11	0xbf6827f7	-0.9068598
12	0xbf2a66be	-0.6656302
13	0x3f34798d	0.7049797
14	0xbf264ef4	-0.6496422
15	0xbf37769d	-0.71665365

bias f4 [16]
0	0xbe9576af	-0.2919211
1	0x3f067b55	0.5253194
2	0x3f5c6c42	0.8610269
3	0x3df775c6	0.120830104
4	0xbdaedfd6	-0.08538787
5	0x3efbea36	0.49202126
6	0xbf1be282	-0.608925
7	0xbe4a9d91	-0.1978667
8	0x3f74eb29	0.95671326
9	0xbf6b0600	-0.9180603
10	0xbe902ef3	-0.2816082
11	0xbef5173d	-0.47869292
12	0x3db71f5c	0.08941528
13	0x3d0e47c9	0.03473643
14	0x3e37965a	0.17928448
15	0x3df1d5c0	0.11808348

weight f4 [16, 1]
0	0x3f0b5626	0.5442833
1	0x3f5200ee	0.8203267
2	0xbd82e220	-0.06390786
3	0x3f47626c	0.77884555
4	0xbf00cae0	-0.5030956
5	0xbf6372e2	-0.8884717
6	0x3e9c7ebc	0.3056544
7	0xbe19bb10	-0.15012765
8	0xbd95f000	-0.07321167
9	0xbe5de2b0	-0.21668506
10	0xbc8c6140	-0.017136216
11	0xbe1bff80	-0.15234184
12	0xbe93f4a4	-0.28897583
13	0x3f794ba0	0.9738102
14	0x3e85c330	0.2612548
15	0xbf060988	-0.52358294

weight f4 [16, 1]
0	0x3f29d104	0.6633456
1	0xbe1fdcac	-0.15611523
2	0xbf59d40b	-0.85089177
3	0x3df23230	0.11825979
4	0xbf699d68	-0.9125581
5	0x3f27cde5	0.65548545
6	0xbf0ee360	-0.55815697
7	0xbe926ebd	-0.28600112
8	0x3eafb251	0.34315732
9	0xbdb56e8b	-0.08858975
10	0xbf4775c0	-0.7791405
11	0x3d60c658	0.054876655
12	0x3ea468a0	0.32111073
13	0x3f2ee2d7	0.6831488
14	0x3cb98940	0.022648454
15	0x3f176623	0.59140223

bias f4 [16]
0	0xbf07a483	-0.529854
1	0xbf289ece	-0.65867317
2	0xbf48e1ac	-0.7846935
3	0xbebc74b1	-0.36807778
4	0xbe65596d	-0.22397394
5	0xbe0a4952	-0.13504532
6	0x3eb5297a	0.35383207
7	0xbea4bbc5	-0.32174507
8	0x3e281c68	0.16417086
9	0xbf08346a	-0.5320498
10	0x3f0e3f99	0.5556579
11	0xbd9f1740	-0.077681065
12	0xbf765300	-0.962204
13	0x3e560994	0.20902091
14	0xbf638282	-0.88871014
15	0xbf5cfcdf	-0.8632335

weight f4 [16, 1]
0	0xbeac9944	-0.33710682
1	0x3f4067f8	0.75158644
2	0x3f205864	0.62634873
3	0xbd3011c0	-0.042985678
4	0xbee9b950	-0.45649195
5	0xbe0d3c98	-0.13792646
6	0xbdf152a0	-0.117833376
7	0x3f47a036	0.7797884
8	0x3ec1aee8	0.37828755
9	0x3f12ea80	0.5738907
10	0xbf1c8c98	-0.6115203
11	0xbefcc9f8	-0.4937284
12	0x3eae7908	0.34076715
13	0x3f526bec	0.82195926
14	0xbebb3db0	-0.365705
15	0xbefe5b20	-0.49678898

weight f4 [16, 1]
0	0x3f709fe8	0.93994
1	0xbf187b6f	-0.59563345
2	0xbf0c4f6e	-0.548087
3	0xbea8b4bc	-0.3295039
4	0x3efd388a	0.49457198
5	0xbe983de8	-0.2973473
6	0xbf4b39ca	-0.79385054
7	0xbd7fcde7	-0.062452223
8	0xbe915904	-0.28388226
9	0xbf3ce381	-0.73784643
10	0x3ebc52e7	0.36782
11	0xbe2bd8de	-0.16781947
12	0x3f6db5ca	0.92855513
13	0xbf877d4b	-1.0585111
14	0xbeb74483	-0.35794458
15	0x3f7db77e	0.9910811

bias f4 [16]
0	0x3f2766b7	0.65391105
1	0xbf3afb64	-0.7303984
2	0xbef4c42c	-0.47805917
3	0x3f20658b	0.6265494
4	0xbeca6fb9	-0.39538363
5	0xbf510393	-0.8164608
6	0x3f69635f	0.91167253
7	0x3f55e956	0.8355917
8	0xbf02ce84	-0.5109637
9	0x3f3eeb90	0.7457819
10	0xbf78d2a2	-0.971964
11	0x3e87eaac	0.26546228
12	0x3f44bd21	0.7685109
13	0x3ef1d275	0.47230878
14	0x3eb7fbc9	0.35934284
15	0x3eddbc2b	0.43307623

weight f4 [16, 1]
0	0x3da89fb8	0.08233589
1	0x3f4bde7d	0.79636365
2	0x3f60f5a0	0.87874794
3	0xbf843fb1	-1.0331937
4	0xbf75826f	-0.9590215
5	0xbcd98322	-0.026551787
6	0xbef9efab	-0.48815665
7	0xbe38679d	-0.18008275
8	0xbf40da88	-0.7533345
9	0x3e7eabf7	0.24870287
10	0x3b770221	0.0037690478
11	0x3c86a175	0.01643441
12	0x3f7d99a2	0.9906255
13	0x3f6d9476	0.9280466
14	0x3f514d64	0.81758714
15	0x3e233d61	0.15941383

weight f4 [16, 1]
0	0xbef4639a	-0.4773224
1	0x3ebd94d7	0.37027618
2	0xbf285a07	-0.6576237
3	0xbf71b441	-0.9441567
4	0x3f716a42	0.9430276
5	0xbf04912a	-0.51784
6	0xbf5992d1	-0.8498965
7	0xbf2ac994	-0.66713834
8	0x3f3273c2	0.6970788
9	0x3f1462c7	0.5796322
10	0xbf2d5c73	-0.6771919
11	0xbf7862e5	-0.970259
12	0x3f3585cb	0.70907277
13	0xbd11216e	-0.03543227
14	0x3f2c8409	0.6738897
15	0xbf4c14db	-0.7971932

bias f4 [16]
0	0xbe156513	-0.14589338
1	0x3e15234f	0.1456425
2	0x3ebead89	0.37241772
3	0x3e33b807	0.1755067
4	0x3f66ed2e	0.9020566
5	0x3efa4ea9	0.48888138
6	0x3e61974b	0.2203037
7	0x3ea16cb2	0.3152824
8	0xbe8030e9	-0.25037315
9	0x3f077596	0.52913797
10	0xbe16713e	-0.14691636
11	0x3f018f0f	0.50608915
12	0x3dcd55fc	0.10026166
13	0x3eb6387c	0.3558997
14	0x3f48af34	0.7839234
15	0x3dcc48bb	0.0997481

weight f4 [16, 1]
0	0xbeb7bba2	-0.3588534
1	0x3f33a179	0.7016826
2	0xbf40bed6	-0.7529119
3	0xbef060ef	-0.46948954
4	0xbf23b7c2	-0.6395227
5	0x3e2db140	0.16962147
6	0xbe33ec15	-0.17570527
7	0xbd3a612c	-0.045502827
8	0x3e1b18c2	0.15146163
9	0xbe7a046f	-0.24415754
10	0xbf2bafe1	-0.67065245
11	0x3f769f1a	0.9633652
12	0x3da0793f	0.07835626
13	0xbf2b40a7	-0.66895527
14	0x3f692c90	0.9108362
15	0xbe959316	-0.2921378

weight f4 [16, 1]
0	0xbf09ffc6	-0.53905904
1	0xbc62ca3e	-0.013842164
2	0x3e8b38c3	0.27191743
3	0x3f21d299	0.6321197
4	0xbf459f85	-0.7719653
5	0x3f2698b7	0.65076774
6	0x3f4c0a77	0.7970347
7	0x3da86d24	0.08223942
8	0x3f430810	0.7618418
9	0x3e38f5bd	0.18062492
10	0x3ee645b0	0.44975042
11	0x3d5b75d7	0.053579178
12	0xbf6a28d9	-0.9146858
13	0x3dd20efb	0.102567635
14	0x3d8c0a7a	0.06837936
15	0xbe917edc	-0.284171

bias f4 [16]
0	0xbe4321f3	-0.1905592
1	0xbf69d36b	-0.91338223
2	0xbe8d4071	-0.27588227
3	0xbea63d75	-0.32468763
4	0x3ecc5ecd	0.39916077
5	0xbf05250c	-0.52009654
6	0x3f36fabe	0.7147635
7	0x3f205687	0.6263203
8	0x3e978fc2	0.29601866
9	0x3edad046	0.42737025
10	0x3eeb63e9	0.45974663
11	0x3e03a207	0.12854777
12	0xbee1785c	-0.4403714
13	0xbef2e5c1	-0.47440913
14	0x3aa70020	0.0012741126
15	0xbf239128	-0.63893366

weight f4 [16, 1]
0	0x3f39afc8	0.72533846
1	0xbecea568	-0.4036057
2	0xbb90d200	-0.004419565
3	0x3f6414a6	0.89094007
4	0x3f13f57c	0.57796454
5	0xbf63a986	-0.8893055
6	0x3f59ef38	0.85130644
7	0xbd0515c0	-0.032491446
8	0xbe3a0260	-0.18164968
9	0xbf25e658	-0.648046
10	0xbea82c08	-0.32846093
11	0xbe8905f8	-0.26762366
12	0xbe093e00	-0.13402557
13	0x3f4b8cb4	0.7951157
14	0xbf48d448	-0.78448915
15	0xbf6420c6	-0.8911251

weight f4 [16, 1]
0	0xbd0120ae	-0.031525306
1	0xbf6d5bc5	-0.92718154
2	0x3e8a7cd2	0.27048355
3	0x3f706f00	0.9391937
4	0xbf146966	-0.57973325
5	0xbf28de46	-0.6596416
6	0x3f3f79ec	0.74795413
7	0x3f3c6bc9	0.7360197
8	0xbe5d7105	-0.21625145
9	0xbe8c77d9	-0.27435187
10	0x3f47379e	0.7781924
11	0xbef76378	-0.48318076
12	0x3f798811	0.97473246
13	0x3eb4c083	0.35303125
14	0x3f7296fd	0.9476164
15	0x3ddba5d7	0.10724991

bias f4 [16]
0	0xbe694f0e	-0.22784063
1	0xbe4a2534	-0.19740754
2	0xbf334156	-0.7002157
3	0xbf5c3424	-0.8601706
4	0x3f5cb117	0.8620772
5	0x3f7e62cf	0.9936952
6	0xbe66e584	-0.22548491
7	0xbea99b99	-0.33126524
8	0x3f388b15	0.7208722
9	0x3f1b00d2	0.60548127
10	0xbe9ecb6d	-0.31014577
11	0x3f452c06	0.770203
12	0xbeb34d4a	-0.35019904
13	0xbc1178e6	-0.008878922
14	0x3f1259ce	0.5716828
15	0xbf3a63a9	-0.7280832

weight f4 [16, 1]
0	0x3ed1b498	0.40958095
1	0x3f2996c4	0.66245675
2	0x3e2eabb0	0.17057681
3	0xbf5a8438	-0.85358
4	0x3e9a6d54	0.30161536
5	0xbf63e05c	-0.8901422
6	0xbd17a9c0	-0.03702712
7	0xbe5a82f8	-0.21339023
8	0xbeccbd48	-0.3998816
9	0xbcb97000	-0.022636414
10	0x3eac0c3c	0.33603084
11	0xbe96e204	-0.2946931
12	0xbf048e16	-0.51779306
13	0xbf345046	-0.7043499
14	0x3f231e68	0.6371827
15	0xbefd92a0	-0.49525928

weight f4 [16, 1]
0	0xbeb0db03	-0.34542093
1	0x3ea5387c	0.32269657
2	0xbf41eeb7	-0.75754875
3	0xbf643cdd	-0.8915537
4	0x3ed7c9a0	0.42146015
5	0x3ef152b2	0.47133404
6	0x3eee6d05	0.4656755
7	0xbf5b1ff3	-0.85595626
8	0x3e0bb486	0.13643083
9	0xbf8accc1	-1.0843736
10	0x3f5be44d	0.85895234
11	0x3ec75573	0.3893238
12	0x3f58e095	0.84717685
13	0xbf2be943	-0.67152804
14	0x3ede8e14	0.43467772
15	0xbdbd2837	-0.09236186

bias f4 [16]
0	0xbdeb9c86	-0.11504464
1	0x3f19d292	0.6008693
2	0x3e827a8e	0.25484127
3	0x3f473b27	0.77824634
4	0x3f6e3316	0.930467
5	0x3f70e99b	0.94106454
6	0xbec352c7	-0.38149092
7	0x3f439d30	0.76411724
8	0x3d4591ef	0.048234876
9	0x3ec560d7	0.38550445
10	0xbf77ee36	-0.96847856
11	0xbee36a0e	-0.4441685
12	0x3f44a317	0.76811355
13	0xbea0b5e3	-0.3138877
14	0xbe039b36	-0.12852177
15	0x3ec88373	0.39162788

weight f4 [16, 1]
0	0xbf71c330	-0.9443846
1	0x3e103f6d	0.14086695
2	0xbf73daea	-0.9525591
3	0xbd25d4e4	-0.04048623
4	0x3ea0d3d2	0.31411606
5	0x3edfbfc0	0.4370098
6	0x3f12012b	0.5703303
7	0x3efb8557	0.49125168
8	0x3f1cc77e	0.612419
9	0xbf07bc50	-0.5302172
10	0xbf57ef17	-0.843492
11	0x3f6f52d3	0.93485755
12	0x3e0d58f1	0.1380346
13	0x3e55d5c1	0.20882322
14	0xbebf13f1	-0.37319902
15	0xbe5dd6e7	-0.2166401

weight f4 [16, 1]
0	0xbeae90d0	-0.34094858
1	0xbf2ad0bd	-0.6672476
2	0xbf4898cd	-0.78358155
3	0x3ee09fc9	0.43871906
4	0x3ed250c4	0.41077244
5	0x3f0033af	0.5007886
6	0x3f6e3c47	0.93060726
7	0x3f35d17f	0.7102279
8	0xbf39c3e5	-0.72564536
9	0x3d067328	0.032824665
10	0xbe04dfdf	-0.12976025
11	0xbf18884b	-0.59582967
12	0xbe2f6fcd	-0.17132492
13	0xbf69d4f3	-0.9134056
14	0xbf4ad1e2	-0.79226506
15	0xbf5ce132	-0.8628112

bias f4 [16]
0	0x3f02da7c	0.5111463
1	0x3ed8f159	0.42371634
2	0xbf54fa17	-0.83194107
3	0xbf142fe1	-0.5788556
4	0xbf605664	-0.8763182
5	0xbf07db4b	-0.5306899
6	0x3db3a232	0.08771171
7	0x3f39e8a0	0.7262058
8	0x3ef58867	0.4795563
9	0xbe230aff	-0.15922163
10	0x3de7aff9	0.11312861
11	0x3efce5ff	0.49394223
12	0x3f6b81ff	0.91995233
13	0x3f83668d	1.0265671
14	0x3cecf54d	0.028925562
15	0xbb1e6c92	-0.00241736

weight f4 [16, 1]
0	0x3e6ec033	0.23315506
1	0xbf6fb9a9	-0.9364267
2	0xbdeb3e82	-0.11486532
3	0x3e156975	0.1459101
4	0x3f5f29e4	0.87173295
5	0x3f6e7b3d	0.93156797
6	0x3f129075	0.57251674
7	0xbf2bcc94	-0.67109036
8	0xbf873e01	-1.0565797
9	0x3d72683a	0.05918143
10	0x3ed6e8e1	0.41974548
11	0x3f34a7d0	0.7056856
12	0xbee57169	-0.44813088
13	0xbeb236b6	-0.34807366
14	0xbcba13a3	-0.022714442
15	0x3d7af0aa	0.06126467

weight f4 [16, 1]
0	0x3d520687	0.051275756
1	0x3f09f138	0.53883696
2	0xbe43179e	-0.19051978
3	0x3e10a04e	0.14123651
4	0xbf4f79e8	-0.8104539
5	0xbebd7a8f	-0.37007567
6	0xbd0fdfe7	-0.03512564
7	0x3f522e7a	0.8210217
8	0x3f31d95b	0.69472283
9	0x3f2deee5	0.6794265
10	0x3eeb70aa	0.45984393
11	0xbeeb22a4	-0.45924866
12	0xbec6c74a	-0.3882392
13	0xbeda09fc	-0.42585742
14	0xbdd7c9ab	-0.10536512
15	0x3e93b3a2	0.28847986

bias f4 [16]
0	0x3f37ee28	0.7184777
1	0x3e84bca7	0.2592518
2	0xbe8c8a11	-0.27449086
3	0xbf2293e7	-0.6350693
4	0xbf3d6f56	-0.7399801
5	0x3f018475	0.5059274
6	0xbea71b51	-0.32638028
7	0xbf50ed77	-0.8161234
8	0x3e779c27	0.24180661
9	0x3f4434d2	0.766431
10	0xbf389ad4	-0.7211125
11	0x3d513561	0.051076297
12	0xbce7e232	-0.0283061
13	0x3efb7c9e	0.49118513
14	0x3f3dc27e	0.74124897
15	0xbdcd6cab	-0.100304924

weight f4 [16, 1]
0	0x3df52900	0.11970711
1	0xbe86c110	-0.2631917
2	0xbe76d468	-0.24104464
3	0xbee0dbec	-0.43917787
4	0x3e29c970	0.16580749
5	0x3ed1d3b4	0.4098183
6	0xbf115806	-0.5677494
7	0xbf6f6726	-0.9351677
8	0xbf10af74	-0.5651772
9	0x3ed4eaa8	0.4158528
10	0x3f0f9358	0.56084204
11	0xbf6a5a66	-0.9154419
12	0x3d87d590	0.06632531
13	0xbf359cd4	-0.70942426
14	0xbf190e8a	-0.5978781
15	0xbebf22d0	-0.37331247

weight f4 [16, 1]
0	0xbe085703	-0.13314442
1	0x3f299c4a	0.66254103
2	0xbd260c55	-0.040539104
3	0xbf294bc4	-0.66131234
4	0x3f5ee212	0.87063706
5	0x3efecf92	0.4976774
6	0xbf426f21	-0.7595082
7	0xbeb74e2c	-0.35801828
8	0x3f8000d9	1.0000259
9	0x3eefd135	0.468393
10	0x3f26274f	0.6490373
11	0x3e8756a9	0.26433304
12	0x3e9f4a7a	0.3111151
13	0x3f2ce862	0.6754209
14	0xbef8204a	-0.48462135
15	0x3f6f2f03	0.9343111

bias f4 [16]
0	0xbe40ca4c	-0.1882717
1	0xbf680ffc	-0.9064939
2	0x3ab8c1c3	0.0014095831
3	0x3f75c6e4	0.9600661
4	0x3f34c505	0.7061313
5	0xbf0b6dd9	-0.5446449
6	0xbf06c6fb	-0.5264737
7	0x3e5658d8	0.20932329
8	0xbf2cf5c5	-0.67562515
9	0x3ec0a317	0.37624428
10	0xbe007de0	-0.12548018
11	0x3f42ae64	0.7604735
12	0x3f0f6aa4	0.56022096
13	0x3d8205b2	0.063487425
14	0x3f39ee38	0.7262912
15	0xbec945e3	-0.39311132

weight f4 [16, 1]
0	0xbee0992c	-0.4386686
1	0xbe8cb8b8	-0.2748468
2	0x3db53cb0	0.08849466
3	0x3d902030	0.07037389
4	0xbe9777e4	-0.29583657
5	0xbf45923c	-0.7717626
6	0xbdc4b820	-0.096054316
7	0xbf41346a	-0.754706
8	0xbf126da4	-0.5719855
9	0x3e585df0	0.21129584
10	0xbec7b670	-0.39006376
11	0x3e118910	0.14212441
12	0x3e2cb980	0.16867638
13	0xbe88ea24	-0.26741135
14	0x3f24aa64	0.64322495
15	0x3f0d85ea	0.5528246

weight f4 [16, 1]
0	0xbf047a90	-0.51749516
1	0xbf7d859a	-0.99031985
2	0xbf7d01d8	-0.9883094
3	0xbe0c9b98	-0.1373123
4	0xbe0529a0	-0.1300416
5	0x3ee408bc	0.44537914
6	0x3eb017dc	0.34393203
7	0x3edd926c	0.43275774
8	0x3d386100	0.04501438
9	0x3e951d64	0.29123986
10	0xbe9f0d30	-0.3106475
11	0x3f660b9a	0.8986145
12	0x3f5b9d02	0.8578645
13	0x3da621f0	0.08111942
14	0xbf70521a	-0.9387528
15	0x3e29e470	0.16591048

bias f4 [16]
0	0xbde3d766	-0.11125068
1	0x3ed1f3a4	0.41006196
2	0xbf0727bb	-0.52795
3	0x3f2ef603	0.68344134
4	0x3f2365f6	0.63827455
5	0xbf533cd5	-0.825147
6	0xbf0e8d05	-0.5568393
7	0xbf1ea812	-0.61975205
8	0xbe262863	-0.16226344
9	0xbc6caf89	-0.014446148
10	0x3d5891d0	0.052873433
11	0x3e6faf90	0.23406816
12	0xbf5a4ffd	-0.852783
13	0xbdba8609	-0.091075964
14	0x3e32287a	0.17398253
15	0xbe980225	-0.29689136

weight f4 [16, 1]
0	0x3f04ccb2	0.5187484
1	0xbed872f6	-0.42275208
2	0xbddf14e3	-0.10892656
3	0x3ed8d2f1	0.42348436
4	0x3f3f6083	0.7475664
5	0xbe8649ac	-0.26228082
6	0x3e4711fc	0.19440454
7	0x3ef9c7da	0.48785287
8	0x3f379a76	0.71720064
9	0xbf10dea3	-0.56589717
10	0x3e7aefdf	0.24505566
11	0x3f0ca0d3	0.549329
12	0x3f5bdef0	0.8588705
13	0x3ed9da66	0.42549437
14	0xbf4b144e	-0.7932786
15	0x3f6929e2	0.91079533

weight f4 [16, 1]
0	0x3f2c5448	0.67316103
1	0xbd7756a0	-0.060385346
2	0x3f2e8d16	0.6818403
3	0x3e7a2e40	0.24431705
4	0x3ddd3f70	0.10803115
5	0x3f7b5f5c	0.9819238
6	0xbf1477aa	-0.5799509
7	0xbf36919a	-0.7131592
8	0x3e81d198	0.2535522
9	0x3f255cd0	0.64594746
10	0x3f22cad0	0.6359072
11	0x3eeeb1ec	0.4662012
12	0xbce14900	-0.02750063
13	0xbf64b344	-0.8933604
14	0xbedcaca4	-0.43100464
15	0xbebedbc8	-0.37277055

bias f4 [16]
0	0xbf62326e	-0.883582
1	0xbf426c21	-0.7594624
2	0x3e988df9	0.29795817
3	0x3ec787b2	0.38970715
4	0x3f45b3f4	0.7722771
5	0xbddd1452	-0.107948914
6	0xbef018e3	-0.46893987
7	0xbf59a7d6	-0.8502172
8	0xbe569020	-0.20953417
9	0xbed612fc	-0.4181136
10	0xbe7400eb	-0.23828475
11	0xbf35c7bb	-0.7100789
12	0xbe49ddde	-0.19713542
13	0x3f516cfd	0.8180693
14	0x3de62be0	0.11238837
15	0xbf1dec67	-0.61688846

weight f4 [16, 1]
0	0x3e21e87b	0.1581134
1	0x3f1667a3	0.5875189
2	0x3ddb5bf7	0.107109
3	0x3c84924f	0.016183047
4	0xbf134942	-0.5753366
5	0x3ebcabb6	0.36849755
6	0xbf384697	-0.7198271
7	0xbf4535d8	-0.77035284
8	0xbe35f767	-0.17770158
9	0x3ddf8193	0.10913386
10	0xbf3abb35	-0.72941905
11	0x3f4589e2	0.7716352
12	0xbedd758d	-0.43253747
13	0xbe646248	-0.22303116
14	0xbea2440c	-0.3169254
15	0x3d16d70d	0.036826182

weight f4 [16, 1]
0	0x3f48de68	0.78464365
1	0xbecd0844	-0.4004537
2	0xbbd25900	-0.006419301
3	0xbda840a0	-0.08215451
4	0xbcc79dc0	-0.024367213
5	0x3f6d4a7e	0.9269179
6	0x3efa8fd4	0.48937857
7	0x3e227838	0.15866172
8	0x3e84af44	0.25914967
9	0x3f748f7c	0.9553144
10	0xbf77be3e	-0.9677466
11	0x3f696738	0.91173124
12	0xbf46c376	-0.77642
13	0x3e16bf00	0.14721298
14	0xbedd8a58	-0.4326961
15	0x3f4c859e	0.79891384

bias f4 [16]
0	0xbf1ede78	-0.6205821
1	0x3f065158	0.5246787
2	0xbf3b271c	-0.7310655
3	0xbe3b3a14	-0.18283874
4	0x3d0d5895	0.034508307
5	0xbf0fea00	-0.5621643
6	0xbe7b9c42	-0.24571326
7	0x3ecca5b2	0.39970165
8	0xbf2518e6	-0.64491117
9	0xbefb480a	-0.490784
10	0x3edf6126	0.43628806
11	0x3f64689e	0.89222133
12	0xbe4ab78c	-0.1979658
13	0xbf4925a0	-0.78573036
14	0xbf6e7bc0	-0.9315758
15	0xbe108ab1	-0.14115407

weight f4 [16, 1]
0	0xbe7565a7	-0.23964559
1	0xbf69fe23	-0.91403407
2	0x3e149607	0.14510356
3	0x3f59945a	0.8499199
4	0x3f0db00c	0.5534675
5	0x3f4a83fc	0.7910764
6	0xbeeea6ac	-0.46611536
7	0xbf69c03e	-0.91308963
8	0xbf2572ec	-0.6462848
9	0xbbfa6983	-0.0076419725
10	0x3df13649	0.11777932
11	0x3eda8fd2	0.4268785
12	0x3dc3413f	0.09533929
13	0xbea1c61a	-0.31596452
14	0xbe626903	-0.22110371
15	0x3ea4bdfa	0.3217619

weight f4 [16, 1]
0	0xbedae01c	-0.42749107
1	0xbe9f3a74	-0.31099284
2	0x3f2f2ffa	0.6843258
3	0x3f52130c	0.82060313
4	0x3e4db758	0.20089471
5	0x3f757170	0.95876217
6	0x3dff2e70	0.12460029
7	0x3f2a02fe	0.66410816
8	0x3e1734c0	0.14766216
9	0x3ed8c080	0.42334366
10	0x3ec813c4	0.3907758
11	0xbeb09c00	-0.3449402
12	0x3f226450	0.63434315
13	0xbf59f690	-0.8514185
14	0x3d8f7f60	0.07006717
15	0x3d1a1c80	0.037624836

bias f4 [16]
0	0xbccce8e8	-0.025013402
1	0xbe847deb	-0.25877318
2	0xbf2e88ec	-0.68177676
3	0x3f17e0ee	0.5932759
4	0xbf6b75fb	-0.919769
5	0xbf619e05	-0.88131744
6	0xbf6a5b93	-0.9154598
7	0x3ec08c07	0.37606832
8	0xbd301e36	-0.04299756
9	0xbed1f7fd	-0.41009513
10	0x3f560ed3	0.8361637
11	0xbf707176	-0.9392313
12	0xbd799f6c	-0.060943052
13	0x3f353090	0.70777225
14	0x3f07fc30	0.5311918
15	0xbf3be01f	-0.73388857

weight f4 [16, 1]
0	0xbeaba7ec	-0.33526552
1	0x3f7a9280	0.9787979
2	0xbed4d64c	-0.41569746
3	0xbf29e1e4	-0.66360307
4	0x3f46d332	0.7766601
5	0x3f4ae3b4	0.792537
6	0x3e95bdbc	0.29246318
7	0xbeec6d34	-0.46177065
8	0x3f028ff4	0.51000905
9	0xbf2fac14	-0.68621945
10	0xbf3e3288	-0.74295855
11	0xbea44e1c	-0.32090843
12	0xbf58cfe6	-0.8469223
13	0x3e602cb0	0.21892047
14	0x3f30f7f4	0.69128346
15	0x3f564ac6	0.83707845

weight f4 [16, 1]
0	0xbefeaec8	-0.49742723
1	0x3ded1d00	0.11577797
2	0xbee843c8	-0.45364213
3	0x3f1448f6	0.5792383
4	0x3de70910	0.112810254
5	0x3f6e9ca2	0.9320775
6	0xbef813f0	-0.4845271
7	0xbe84fa10	-0.25972033
8	0x3d460680	0.048346043
9	0xbf6b5ce0	-0.9193859
10	0xbd073860	-0.033012748
11	0xbd974de0	-0.073879
12	0x3f215cc4	0.63032174
13	0x3e1bb818	0.15206945
14	0x3f32c2f8	0.6982875
15	0xbf262d66	-0.6491302

bias f4 [16]
0	0x3e54cb97	0.20780788
1	0xbf0d41d6	-0.5517858
2	0xbec4727c	-0.38368595
3	0x3f09438f	0.5361871
4	0xbf67f31e	-0.9060534
5	0x3f68572d	0.9075802
6	0xbf41a1a3	-0.75637263
7	0x3f0277c8	0.5096402
8	0x3e20c735	0.15700991
9	0x3f3b12e4	0.730757
10	0x3e961cdb	0.2931889
11	0xbe30b128	-0.1725508
12	0xbe99efc4	-0.3006574
13	0x3ec34ad5	0.3814303
14	0xbebc461b	-0.36772236
15	0xbe95fdd1	-0.2929521

weight f4 [16, 1]
0	0x3ee82ee6	0.4534828
1	0xbe993dde	-0.29930013
2	0xbbea246e	-0.007145456
3	0xbf1f13df	-0.62139696
4	0xbe9f517e	-0.3111686
5	0xbeac3f98	-0.33642268
6	0xbe6bf004	-0.23040777
7	0x3c326f39	0.010890775
8	0x3ef05173	0.4693714
9	0xbf41a307	-0.75639385
10	0xbeed3413	-0.46328792
11	0xbe74dd0e	-0.2391245
12	0xbec05c2e	-0.37570328
13	0xbe1628c7	-0.14663993
14	0x3f0f78b4	0.56043553
15	0x3f3fcdf2	0.7492362

weight f4 [16, 1]
0	0xbe85b8f4	-0.2611767
1	0x3f08bd94	0.53414273
2	0xbe8d3964	-0.27582848
3	0x3eca6628	0.39531064
4	0xbead4bbc	-0.33846843
5	0x3c9155c0	0.017741084
6	0xbf3f35d2	-0.746915
7	0xbdfd0c60	-0.12355876
8	0xbec9b888	-0.393986
9	0x3f14b52e	0.5808896
10	0xbe2f0928	-0.17093337
11	0xbf4a37ec	-0.7899158
12	0x3ebe6850	0.3718896
13	0xbf335fee	-0.7006825
14	0x3f55aa0a	0.83462584
15	0x3df2f5e0	0.11863303

bias f4 [16]
0	0x3ebf82cf	0.37404487
1	0xbef16bd3	-0.47152576
2	0xbf565b13	-0.8373272
3	0x3f2f5453	0.68488044
4	0xbec9065a	-0.39262658
5	0x3f4a7b6f	0.79094595
6	0xbf2a8302	-0.6660615
7	0xbdfae5ae	-0.12250839
8	0x3e698c08	0.22807324
9	0x3f78e9ee	0.9723195
10	0xbe9b5254	-0.3033625
11	0x3ec76ddf	0.38951012
12	0x3f478e31	0.7795134
13	0xbf670d7d	-0.90254956
14	0x3f67ee9f	0.9059848
15	0x3e32dba2	0.17466596

weight f4 [16, 1]
0	0xbef19f7f	-0.47191998
1	0xbb77f868	-0.003783727
2	0x3e80636d	0.25075856
3	0x3ee62186	0.4494745
4	0xbf650360	-0.89458275
5	0x3ecc733e	0.39931673
6	0x3eefa4c8	0.46805406
7	0xbf3f9042	-0.74829495
8	0x3e4f8998	0.20267332
9	0x3f69730f	0.9119119
10	0xbd9dc3ed	-0.077033855
11	0xbec34b6b	-0.38143477
12	0xbeb3b28d	-0.3509716
13	0xbf76ecb3	-0.96454924
14	0x3f026567	0.5093598
15	0xbe7a1372	-0.2442148

weight f4 [16, 1]
0	0xbf547da8	-0.83004236
1	0xbe9dab5c	-0.307948
2	0xbf31c7b6	-0.6944536
3	0x3ed61e24	0.4181987
4	0x3f6727ba	0.9029499
5	0xbf77ef46	-0.9684948
6	0x3e05ca80	0.13065529
7	0xbef9d098	-0.48791957
8	0xbf03a514	-0.51423764
9	0x3db37430	0.087623954
10	0xbf21608c	-0.63037944
11	0x3f6ebe2e	0.9325894
12	0x3e7d1c28	0.24717772
13	0xbc012a80	-0.007883668
14	0xbd77c480	-0.06049013
15	0x3f646d96	0.89229715

bias f4 [16]
0	0x3eba5e19	0.36399916
1	0xbf4c7e49	-0.79880196
2	0xbdfae09a	-0.122498706
3	0xbea0d94a	-0.31415778
4	0xbecca1e5	-0.39967266
5	0xbf054c10	-0.5206919
6	0x3f1c1742	0.6097299
7	0xbe1bada2	-0.15202954
8	0x3f663b56	0.8993429
9	0xbe979c6a	-0.29611522
10	0xbf414b83	-0.75505847
11	0x3eec0e00	0.4610443
12	0xbf313ee6	-0.692366
13	0x3f48c38e	0.7842339
14	0x3f3672bc	0.7126882
15	0xbe964d8a	-0.29356033

weight f4 [16, 1]
0	0xbe58672f	-0.21133111
1	0x3ee8205e	0.45337194
2	0xbe4e1709	-0.20125975
3	0xbf42ce82	-0.76096356
4	0xbf3c0c46	-0.7345623
5	0x3f47697e	0.77895343
6	0xbe6fd3d5	-0.23420651
7	0xbef746c3	-0.48296174
8	0xbe019e90	-0.12658143
9	0x3ecce5cd	0.40019074
10	0xbcc0db94	-0.023542203
11	0xbf0ee066	-0.55811155
12	0x3c2f9093	0.0107156215
13	0x3f370d2d	0.7150448
14	0xbf61495e	-0.88002574
15	0x3eacb3da	0.33730966

weight f4 [16, 1]
0	0xbe8228ec	-0.25421846
1	0xbf3b12be	-0.73075473
2	0xbce6d200	-0.028176308
3	0x3ea0e098	0.3142135
4	0xbd824000	-0.06359863
5	0xbe7a6c90	-0.24455476
6	0xbf05c4d8	-0.52253485
7	0x3f11b8de	0.5692271
8	0xbed13154	-0.40857947
9	0xbf6a323e	-0.91482913
10	0x3bd98e00	0.006639242
11	0x3f49f34e	0.7888688
12	0xbf3ee094	-0.7456143
13	0x3f420384	0.75786614
14	0xbed17e4c	-0.4091667
15	0x3f393636	0.72348344

bias f4 [16]
0	0x3c831faa	0.01600631
1	0x3f362e1d	0.71164113
2	0xbeee8ae9	-0.46590355
3	0xbd7a62cc	-0.061129376
4	0x3f3b29ce	0.73110664
5	0x3e984e14	0.2974707
6	0xbf6cc9c2	-0.9249536
7	0xbea97049	-0.3309348
8	0xbd33cedc	-0.04389845
9	0x3f0a6995	0.54067355
10	0xbf7b7f5a	-0.982412
11	0xbf05dbf6	-0.5228876
12	0x3edab4bc	0.42716014
13	0xbda6df35	-0.08148042
14	0xbd2265d7	-0.039647903
15	0x3ed827bb	0.42217812

weight f4 [16, 1]
0	0xbc95dc00	-0.01829338
1	0xbee47fa0	-0.4462862
2	0x3eeaee78	0.45885062
3	0x3eb35798	0.35027766
4	0xbf0473a8	-0.5173898
5	0xbeab09e4	-0.33405983
6	0x3f64715e	0.89235485
7	0xbccfe6c0	-0.025378585
8	0xbf321a2e	-0.695712
9	0x3f2127d8	0.6295142
10	0x3f5201a6	0.82033765
11	0xbd01ce20	-0.031690717
12	0xbf42414a	-0.75880873
13	0x3f1cb294	0.6120999
14	0xbf2fa55e	-0.68611705
15	0x3f52e0be	0.8237418

weight f4 [16, 1]
0	0xbd61b17a	-0.055100895
1	0xbe154ae5	-0.14579351
2	0xbe58cdaa	-0.21172205
3	0x3c84a790	0.016193181
4	0x3ea61ad9	0.32442358
5	0x3e89a9e2	0.26887423
6	0x3edd4857	0.43219253
7	0xbd9ff645	-0.07810644
8	0x3f58dc41	0.8471108
9	0x3de4e49f	0.111764185
10	0xbdd2500d	-0.10269175
11	0x3f53667e	0.82578266
12	0x3f546a7f	0.82975
13	0xbee3ee9b	-0.4451798
14	0x3e8e48e4	0.27789986
15	0x3f025362	0.5090848

bias f4 [16]
0	0x3e5efbd0	0.21775746
1	0x3f63c5a1	0.8897343
2	0xbe3d15df	-0.18465374
3	0xbea0d26f	-0.31410548
4	0x3e3efc24	0.18650872
5	0xbf0b9194	-0.5451901
6	0x3d8065bb	0.062694035
7	0x3ea39fc6	0.31957835
8	0x3f1cb991	0.6122065
9	0x3e9ff875	0.31244245
10	0xbeda1c54	-0.42599738
11	0x3e8ee6ae	0.2791037
12	0xbe8889f9	-0.26667765
13	0xbe65ed3e	-0.22453782
14	0x3f3e2451	0.74274164
15	0x3e9eb789	0.309994

weight f4 [16, 1]
0	0x3ded5900	0.11589241
1	0xbee4cab0	-0.44685888
2	0x3f2f132a	0.6838862
3	0xbf5c6ba6	-0.8610176
4	0xbf24a7e0	-0.64318657
5	0xbebafb0c	-0.3651966
6	0x3f736a04	0.9508364
7	0x3e466118	0.19372976
8	0x3e279530	0.16365504
9	0x3e83db1c	0.25753105
10	0xbd06a3e0	-0.032871127
11	0xbdb742b0	-0.089482665
12	0x3e9704c4	0.29495823
13	0xbf1dd222	-0.6164876
14	0xbee4e2d8	-0.44704318
15	0x3ecfc9b8	0.40583587

weight f4 [16, 1]
0	0xbd9ee450	-0.07758391
1	0xbf72f01e	-0.9489764
2	0xbf1370ae	-0.5759381
3	0xbeae13b5	-0.3399941
4	0xbf3a1ea1	-0.72702986
5	0xbee61166	-0.4493515
6	0xbf83fda0	-1.0311775
7	0x3ed171af	0.40907046
8	0xbe9fcce6	-0.31211013
9	0x3dc88525	0.0979102
10	0x3e2afcb1	0.16697957
11	0xbe05d469	-0.1306931
12	0x3f11b7bb	0.56920975
13	0xbf297394	-0.66191983
14	0x3e31c4f5	0.1736029
15	0x3d71c71e	0.059027784

bias f4 [16]
0	0xbeea3dda	-0.45750314
1	0xbcc038c9	-0.023464577
2	0x3ed47ff8	0.41503882
3	0x3f779c23	0.9672262
4	0x3ecb1a1a	0.3966835
5	0x3edacf7c	0.42736423
6	0x3f6bc32b	0.9209468
7	0x3f0a9497	0.5413298
8	0xbf4b1c25	-0.7933982
9	0xbddaa9ec	-0.10676941
10	0x3ecb2cb4	0.39682543
11	0xbef56db6	-0.47935265
12	0xbf3179af	-0.693263
13	0x3f5881c1	0.8457299
14	0x3f56f8e7	0.83973545
15	0x3e215f6a	0.15759054

weight f4 [16, 1]
0	0x3e829190	0.2550168
1	0x3e7915d8	0.24324739
2	0xbe937900	-0.28803253
3	0xbf1e38a6	-0.6180519
4	0xbf57b61e	-0.84262264
5	0xbec1ede0	-0.37876797
6	0xbe9c4e04	-0.3052827
7	0x3f1932f6	0.59843385
8	0x3f0b9c46	0.5453533
9	0xbe9a3fcc	-0.30126798
10	0x3f009ba8	0.5023751
11	0xbf13b93e	-0.5770453
12	0x3f7106a2	0.94150746
13	0xbf2ab08c	-0.6667564
14	0x3f60c88c	0.8780601
15	0x3f75ead8	0.9606147

weight f4 [16, 1]
0	0x3f536b89	0.8258596
1	0xbf2377e5	-0.6385482
2	0xbf66b811	-0.90124613
3	0x3f650a56	0.89468896
4	0xbdbfcd38	-0.09365314
5	0xbc898e8c	-0.016791604
6	0x3ee7caff	0.4527206
7	0xbe113527	-0.14180432
8	0x3e29e42e	0.1659095
9	0xbf5fcf0e	-0.87425315
10	0x3bf82e51	0.0075738807
11	0xbde1d00e	-0.110260114
12	0x3f28d990	0.65956974
13	0xbf763800	-0.961792
14	0x3f24e61a	0.6441361
15	0xbed4de66	-0.41575927

bias f4 [16]
0	0xbe6c1ae0	-0.23057127
1	0x3d726a77	0.059183564
2	0x3e2bfdc9	0.1679603
3	0xbdd2d21c	-0.102939814
4	0x3ee8c9fa	0.45466596
5	0xbe894e4c	-0.26817548
6	0x3f20b585	0.62776977
7	0x3bd5c9cf	0.0065243016
8	0xbef94f30	-0.48693228
9	0x3c6b6532	0.014367389
10	0xbe98fb00	-0.29878998
11	0xbf02ddd6	-0.51119745
12	0xbe87f1c9	-0.26551655
13	0x3ee6b267	0.45057985
14	0xbf42581b	-0.7591569
15	0xbd4537ad	-0.0481488

weight f4 [16, 1]
0	0xbecad47c	-0.39615238
1	0xbf566132	-0.8374206
2	0xbf735ab4	-0.95060277
3	0xbf60bcf6	-0.8778833
4	0xbf37d1fe	-0.718048
5	0xbe7f9fd8	-0.2496332
6	0x3ea40798	0.32037044
7	0xbd191c20	-0.037380338
8	0x3e1daf08	0.153988
9	0x3f5f6150	0.8725786
10	0x3f50cad8	0.81559515
11	0x3dfd0810	0.123550534
12	0xbf26f458	-0.6521659
13	0x3f66becc	0.9013488
14	0x3e13e378	0.14442241
15	0x3f59334e	0.8484391

weight f4 [16, 1]
0	0xbf46fa58	-0.77725744
1	0xbf2589e6	-0.6466354
2	0x3ebc46ac	0.36772668
3	0x3f5908a6	0.8477882
4	0x3ea7a7ac	0.3274511
5	0x3f51ab32	0.8190185
6	0xbf1ecd90	-0.62032413
7	0x3f483ee8	0.7822099
8	0x3ee978f0	0.4560008
9	0xbf315d88	-0.6928334
10	0x3f057a02	0.52139294
11	0xbf248a28	-0.6427331
12	0x3f70b00a	0.94018614
13	0x3f7da00a	0.99072325
14	0xbdafe280	-0.08588123
15	0x3f7ae6b4	0.98008275

bias f4 [16]
0	0xbf48c58c	-0.7842643
1	0x3e15a611	0.1461413
2	0x3e363301	0.17792894
3	0x3eb0e3cd	0.34548798
4	0x3eb67b02	0.35640723
5	0xbe8d2a60	-0.27571392
6	0x3f5d4fe5	0.86450034
7	0x3f1de329	0.61674744
8	0xbea1fc4f	-0.3163781
9	0xbf2dbce0	-0.67866325
10	0x3f2842b3	0.65726775
11	0xbef5fe5a	-0.48045617
12	0x3eb92e77	0.36168262
13	0xbf6724b7	-0.902904
14	0xbf7528f7	-0.9576563
15	0xbf2c5c07	-0.6732792

weight f4 [16, 1]
0	0xbf70c090	-0.9404383
1	0x3f63a9dc	0.8893106
2	0x3e8e2110	0.277596
3	0x3f7b2a10	0.9811106
4	0xbe3cb768	-0.18429339
5	0x3f281286	0.65653265
6	0xbedc4980	-0.43024826
7	0x3ee755fc	0.45182788
8	0xbcd46f40	-0.025931954
9	0xbed9f664	-0.42570794
10	0x3e6761e8	0.22595942
11	0x3f77f734	0.9686158
12	0xbe949db4	-0.29026568
13	0xbef1ecd0	-0.47250986
14	0x3f15a700	0.58457947
15	0xbe8130ac	-0.25232446

weight f4 [16, 1]
0	0xbefd10b0	-0.49426794
1	0x3f705662	0.9388181
2	0xbee6da14	-0.45088255
3	0xbf6a2f2c	-0.9147823
4	0x3f4f7c84	0.8104937
5	0xbf13a600	-0.5767517
6	0xbef809bc	-0.48444927
7	0x3eaeb880	0.34125137
8	0x3ef832c0	0.4847622
9	0x3d9fb220	0.077976465
10	0xbf6faf2e	-0.9362668
11	0x3f3d6f0a	0.7399756
12	0xbe6192d0	-0.22028661
13	0x3f7fd264	0.99930406
14	0xbf2a53dc	-0.6653421
15	0xbf713290	-0.9421778

bias f4 [16]
0	0x3ee4f05e	0.44714636
1	0xbf2f297f	-0.68422693
2	0xbec3b86c	-0.3822664
3	0xbe729945	-0.2369128
4	0xbf7e5334	-0.9934571
5	0x3f2d7342	0.67753994
6	0x3dd4d65c	0.10392448
7	0x3edeb51e	0.43497556
8	0x3eaa6185	0.33277526
9	0xbe1b6590	-0.15175462
10	0x3eebb33c	0.46035182
11	0xbe47bedf	-0.19506405
12	0xbf573117	-0.8405928
13	0xbe8869c5	-0.26643196
14	0xbcad4d6b	-0.02115508
15	0xbf523f11	-0.8212748

weight f4 [16, 1]
0	0xbedad75c	-0.4274243
1	0xbea82f98	-0.3284881
2	0xbf102950	-0.5631304
3	0x3f26c7e8	0.6514878
4	0xbe043228	-0.12909758
5	0xbf7d0706	-0.9883884
6	0xbf1eccd4	-0.6203129
7	0xbe430c08	-0.19047558
8	0xbc240980	-0.010012031
9	0x3f1013de	0.56280315
10	0x3f3b0b88	0.7306447
11	0x3e4e8c68	0.20170748
12	0xbf161814	-0.5863049
13	0x3f30d268	0.69071054
14	0x3db6c640	0.08924532
15	0x3d24da40	0.040247202

weight f4 [16, 1]
0	0x3e5735e8	0.21016657
1	0xbf6b91ac	-0.9201915
2	0xbd6a94e0	-0.057270885
3	0xbecbc200	-0.39796448
4	0xbf5fdbfe	-0.87445056
5	0x3e76e0e0	0.2410922
6	0xbe6d2768	-0.23159564
7	0x3f11193e	0.5667914
8	0x3f326c28	0.69696283
9	0xbd7021a0	-0.058625817
10	0xbef49550	-0.47770166
11	0x3f028e16	0.50998056
12	0x3f431f26	0.76219404
13	0x3e7d4540	0.24733448
14	0xbf730042	-0.9492227
15	0x3f3aff72	0.7304603

bias f4 [16]
0	0xbf459b6c	-0.7719028
1	0x3e975d81	0.29563525
2	0xbf6066e9	-0.8765703
3	0x3f59bb43	0.85051364
4	0x3f765834	0.9622834
5	0x3f785d5a	0.97017443
6	0x3de530de	0.11190961
7	0x3d45f141	0.04832578
8	0xbf6b9af9	-0.92033345
9	0x3eca01c9	0.39454487
10	0x3dfbe252	0.122990265
11	0x3f14814d	0.580098
12	0xbf703303	-0.9382784
13	0x3db4d765	0.08830146
14	0x3e8ba457	0.2727382
15	0x3eb67605	0.35636917

weight f4 [16, 1]
0	0x3f6b742c	0.9197414
1	0xbf0ff902	-0.5623933
2	0x3f74876c	0.9551914
3	0xbf2ba8fc	-0.67054725
4	0x3f4d5c6e	0.8021916
5	0x3f34c2f2	0.7060996
6	0xbea2eaa0	-0.3181963
7	0xbf490da2	-0.7853643
8	0x3f7af162	0.9802457
9	0x3e4c0ee0	0.1992755
10	0x3ec15ca4	0.37765992
11	0x3f459352	0.7717792
12	0x3e112db0	0.14177585
13	0x3e2e00e0	0.16992521
14	0xbf3dc458	-0.7412772
15	0x3e467ac0	0.19382763

bias f4 [16]
0	0x00000000	0.0
1	0x00000000	0.0
2	0x00000000	0.0
3	0x00000000	0.0
4	0x00000000	0.0
5	0x00000000	0.0
6	0x00000000	0.0
7	0x00000000	0.0
8	0x00000000	0.0
9	0x00000000	0.0
10	0x00000000	0.0
11	0x00000000	0.0
12	0x00000000	0.0
13	0x00000000	0.0
14	0x00000000	0.0
15	0x00000000	0.0

bias f4 [16]
0	0x00000000	0.0
1	0x00000000	0.0
2	0x00000000	0.0
3	0x00000000	0.0
4	0x00000000	0.0
5	0x00000000	0.0
6	0x00000000	0.0
7	0x00000000	0.0
8	0x00000000	0.0
9	0x00000000	0.0
10	0x00000000	0.0
11	0x00000000	0.0
12	0x00000000	0.0
13	0x00000000	0.0
14	0x00000000	0.0
15	0x00000000	0.0

bias f4 [16]
0	0x00000000	0.0
1	0x00000000	0.0
2	0x00000000	0.0
3	0x00000000	0.0
4	0x00000000	0.0
5	0x00000000	0.0
6	0x00000000	0.0
7	0x00000000	0.0
8	0x00000000	0.0
9	0x00000000	0.0
10	0x00000000	0.0
11	0x00000000	0.0
12	0x00000000	0.0
13	0x00000000	0.0
14	0x00000000	0.0
15	0x00000000	0.0

bias f4 [16]
0	0x00000000	0.0
1	0x00000000	0.0
2	0x00000000	0.0
3	0x00000000	0.0
4	0x00000000	0.0
5	0x00000000	0.0
6	0x00000000	0.0
7	0x00000000	0.0
8	0x00000000	0.0
9	0x00000000	0.0
10	0x00000000	0.0
11	0x00000000	0.0
12	0x00000000	0.0
13	0x00000000	0.0
14	0x00000000	0.0
15	0x00000000	0.0

bias f4 [16]
0	0xddb495c0	-1.6265647e+18
1	0x000078ab	4.3288e-41
2	0xddb495c0	-1.6265647e+18
3	0x000078ab	4.3288e-41
4	0x3a69ef80	0.0008923933
5	0x987c5bc9	-3.2616576e-24
6	0x03c4f070	1.1575046e-36
7	0x000078ad	4.329e-41
8	0x03c4f070	1.1575046e-36
9	0x000078ad	4.329e-41
10	0xd5421a2d	-1.3338605e+13
11	0x23e6e752	2.5034618e-17
12	0xdebca5c0	-6.796741e+18
13	0x000078ab	4.3288e-41
14	0xdebca5c0	-6.796741e+18
15	0x000078ab	4.3288e-41

weight f4 [16, 16]
0	0xbe835eb9	-0.25658205
1	0xbe1cf9ec	-0.15329713
2	0xbe4ac17a	-0.19800368
3	0x3e1364dd	0.14393945
4	0x3d4d94d2	0.050190754
5	0xbb64c719	-0.003490871
6	0x3ddb186b	0.10698017
7	0xbe762434	-0.24037248
8	0x3e5f951a	0.21834221
9	0x3e306691	0.17226626
10	0xbc68e67e	-0.01421511
11	0x3ddc796f	0.10765349
12	0xbd7280f0	-0.059204996
13	0xbe8283bf	-0.2549114
14	0xbe27c380	-0.16383171
15	0xbdb6d1d3	-0.089267395
16	0x3dad9724	0.084760934
17	0x3dd682e7	0.104741864
18	0x3e3df818	0.18551672
19	0xbda684a2	-0.081307665
20	0x3db6f947	0.08934265
21	0x3e530f05	0.20611198
22	0x3decfdb2	0.11571826
23	0x3e084927	0.13309155
24	0xbd83100c	-0.06399545
25	0xbda07271	-0.07834328
26	0xbda59fbf	-0.0808711
27	0x3e123ddc	0.1428141
28	0x3cf6ff91	0.03015116
29	0x3e4c6ce6	0.19963416
30	0x3e6ef1fe	0.233345
31	0xbc5835a0	-0.013196379
32	0xbc8474f2	-0.016169045
33	0xbe3ccce8	-0.1843754
34	0x3e0a4d35	0.13506015
35	0xbd30e09f	-0.043182965
36	0x3df865b0	0.1212877
37	0x3da88418	0.0822832
38	0xbd24717b	-0.040147286
39	0x3dff25ae	0.12458359
40	0xbe07dc00	-0.13267517
41	0xbe69f978	-0.22849071
42	0x3e050171	0.12988831
43	0xbc467954	-0.012113888
44	0xbdd05807	-0.1017304
45	0xbe62d4c6	-0.22151479
46	0xbd321a10	-0.043481886
47	0x3e046aa8	0.12931311
48	0xbba94f59	-0.0051669297
49	0xbd957936	-0.0729851
50	0x3e19f451	0.15034606
51	0x3de77cd4	0.11303106
52	0x3d415a9c	0.047205552
53	0xbe3d2aba	-0.1847333
54	0xbd36b780	-0.044608593
55	0xbbf2b6c8	-0.007407043
56	0x3e040b09	0.12894835
57	0x3e36cbf9	0.17851247
58	0xbe41e1e5	-0.18933828
59	0xbb1bd0c7	-0.0023775564
60	0x3d77c62b	0.060491722
61	0xbd888235	-0.0666546
62	0x3cd76771	0.026294442
63	0x3dd17b63	0.10228612
64	0x3baa3f64	0.005195545
65	0xbe771893	-0.24130468
66	0xbe58bf40	-0.21166706
67	0xbe6d2c3c	-0.23161405
68	0x3d815925	0.06315831
69	0x3e1db162	0.15399697
70	0xbc7bf5bd	-0.015378413
71	0xbe592dee	-0.21208927
72	0xbdc83af4	-0.097768694
73	0x3dd7f692	0.105450764
74	0xbe2958f9	-0.16537847
75	0xbdf00337	-0.11719363
76	0x37b0ea0c	2.1089822e-05
77	0x3e2f54ef	0.17122243
78	0x3dbdb301	0.09262658
79	0xbe146df0	-0.14495063
80	0xbe364a75	-0.1780184
81	0xbe1289f6	-0.1431044
82	0xbdaeb115	-0.085298695
83	0x3c477274	0.012173284
84	0xbd8f4598	-0.06995696
85	0x3d400853	0.04688294
86	0x3cf935f9	0.030421244
87	0xbda2e0ef	-0.07953059
88	0xbd36b451	-0.044605557
89	0x3c423d53	0.011855441
90	0x3e464621	0.1936269
91	0xbe718c85	-0.2358876
92	0x3dba59da	0.09099169
93	0xbd634bf7	-0.055492368
94	0x3db70c87	0.08937936
95	0xbe411840	-0.18856907
96	0x3e68d9a2	0.2273927
97	0x3cef8820	0.029239714
98	0xbe191c68	-0.14952242
99	0x3e4c6f6c	0.19964379
100	0xbe031898	-0.1280235
101	0xbd4a7208	-0.049425155
102	0x3d3365b8	0.04379818
103	0x3e24c753	0.16091661
104	0x3d77d909	0.060509715
105	0xbe1ad132	-0.15118864
106	0xbd308070	-0.043091238
107	0x3d096db0	0.03355187
108	0xbe04383e	-0.1291208
109	0xbe2c4782	-0.16824153
110	0xbe3bbd8c	-0.18334025
111	0xbdcdfc1a	-0.1005785
112	0xbd2c52b1	-0.04207105
113	0x3e002c16	0.12516817
114	0x3c0a4484	0.008439187
115	0xbdb0186a	-0.085984066
116	0x3dcad01f	0.09902977
117	0x3d5755df	0.052572127
118	0x3e4fe070	0.2030046
119	0x3e214f59	0.15752925
120	0x3df2027c	0.1181688
121	0x3dcda07a	0.10040374
122	0x3e34dc2d	0.17662115
123	0x3cc7c4e1	0.024385871
124	0x3d8c29e0	0.068439245
125	0xbd0be68b	-0.03415541
126	0x3e00acca	0.12565914
127	0xbd85a92d	-0.06526408
128	0x3e39badf	0.18137692
129	0xbe6c6d62	-0.23088601
130	0x3e51bb95	0.20481713
131	0xbe9076da	-0.28215677
132	0xbdc65e72	-0.09685983
133	0x3df95894	0.12175098
134	0x3e248ac2	0.16068557
135	0x3e763bad	0.24046202
136	0xbe012080	-0.12610054
137	0xbd8da2ca	-0.06915815
138	0xbe06c6f8	-0.13161838
139	0xbe1f34fa	-0.15547553
140	0x3e87a74d	0.26494828
141	0x3e368a75	0.17826255
142	0xbe4259c3	-0.18979554
143	0xbe3678c5	-0.17819507
144	0x3e4131bd	0.1886663
145	0xbc6a9045	-0.014316623
146	0x3e481949	0.19540896
147	0xbd5f06ad	-0.054449726
148	0xbd15b454	-0.036548927
149	0xbdac6991	-0.08418573
150	0x3dc73cec	0.09728417
151	0xbdd0cf6a	-0.10195811
152	0x3da3812a	0.079836205
153	0x3e954382	0.29153067
154	0x3e425402	0.18977359
155	0x3df6e756	0.120558426
156	0x3e62f126	0.22162303
157	0xbe185638	-0.1487664
158	0xbe1721d1	-0.14758994
159	0xbe1cc2d6	-0.15308699
160	0xbe812e10	-0.25230455
161	0xbdc5b24b	-0.09653147
162	0xbdafd476	-0.085854456
163	0xbc7dacad	-0.015483064
164	0xbd467328	-0.048449665
165	0x3e3d2169	0.18469776
166	0x3dca98a1	0.09892393
167	0x3e31d5f2	0.1736677
168	0xbd9f512f	-0.077791564
169	0x3e113ca5	0.1418329
170	0xbe878897	-0.26471397
171	0x3dacf3cf	0.0844494
172	0x3e2e2e8f	0.17009948
173	0xbd5a23df	-0.053256866
174	0x3d9a496e	0.07533537
175	0x3de9e390	0.11420357
176	0x3e540a3c	0.20707029
177	0xbd1f7c38	-0.038936824
178	0x3d9a14e8	0.07523519
179	0xbe1e91ec	-0.15485352
180	0xbe35b7a6	-0.17745838
181	0xbe61d92c	-0.22055501
182	0xbdc1e018	-0.094665706
183	0x3e518b06	0.2046319
184	0x3d033c30	0.03203982
185	0xbe7c058e	-0.24611494
186	0x3e3b7812	0.18307522
187	0xbe4c3daa	-0.19945398
188	0xbe34c4fe	-0.17653272
189	0xbe45d36e	-0.19318935
190	0x3c7f4620	0.015580684
191	0x3e435eb2	0.19079092
192	0xbe79a698	-0.24379957
193	0xbe62eacc	-0.2215988
194	0xbd21cef1	-0.039503995
195	0xbe3b180b	-0.1827089
196	0x3d4d7af6	0.050166093
197	0x3e6453ca	0.22297588
198	0xbe58f7ab	-0.21188228
199	0x3e29dcfd	0.16588207
200	0xbe1e9cdf	-0.15489529
201	0xbe3e835e	-0.186048
202	0xbdfb630c	-0.12274751
203	0x3d3fcffc	0.04682921
204	0xbdfd1840	-0.12358141
205	0xbe6a91ae	-0.22907135
206	0x3e11729f	0.1420388
207	0x3c4ce000	0.012504578
208	0x3dd510d1	0.10403598
209	0xbeac600e	-0.33667034
210	0x3d8ec528	0.06971198
211	0x3e60cc11	0.21952845
212	0xbd0baa01	-0.034097675
213	0x3e57b66a	0.21065679
214	0xbe2f463a	-0.17116633
215	0xbe230dfd	-0.15923305
216	0x3e3d1707	0.18465815
217	0x3e0ab9b4	0.13547403
218	0x3e41a95d	0.18912263
219	0x3e394a54	0.1809476
220	0xbddd922d	-0.108188964
221	0xbe27ec97	-0.16398846
222	0x3da18ec5	0.07888559
223	0x3e01b88b	0.12668054
224	0x3e699a1a	0.22812691
225	0xbe129513	-0.1431468
226	0x3da7a147	0.08185058
227	0xbdac623b	-0.084171735
228	0x3db58fa4	0.08865288
229	0xbe444584	-0.19167143
230	0xbe5560d3	-0.20837717
231	0xbbf401f2	-0.007446521
232	0xbe3e946b	-0.18611304
233	0x3e8c37ad	0.27386227
234	0x3e242420	0.16029406
235	0xbd4d40cf	-0.050110634
236	0x3e318628	0.17336333
237	0xbe93d8fc	-0.28876483
238	0x3db5664a	0.08857401
239	0xbd52b4b8	-0.051441878
240	0xbe0a3965	-0.13498457
241	0x3d39df5a	0.04537902
242	0xbe1b4b3c	-0.15165418
243	0xbdc9e180	-0.09857464
244	0xbe244570	-0.16042113
245	0xbe350781	-0.17678644
246	0xbe4a6421	-0.19764759
247	0x3e100709	0.14065184
248	0xbe2274cf	-0.15864871
249	0xbd2c7432	-0.042103
250	0xbc635a60	-0.013876528
251	0x3e0756a9	0.13216652
252	0x3e477818	0.19479406
253	0xbe2e546d	-0.17024393
254	0xbdb84937	-0.089983396
255	0x3da3765f	0.07981562

bias f4 [16]
0	0xbe55674d	-0.20840187
1	0xbe31bdbc	-0.17357534
2	0x3de50a22	0.11183573
3	0xbd9f6f3f	-0.077848904
4	0x3e0e1f4a	0.13879123
5	0x3d71374d	0.05889063
6	0xbe4d4fd8	-0.20049989
7	0x3e6570f8	0.22406375
8	0xbe567115	-0.20941575
9	0xbd808324	-0.06275013
10	0x3e1d6231	0.15369488
11	0xbe7b3c24	-0.2453466
12	0xbe6bfa82	-0.2304478
13	0xbc2e6f64	-0.010646675
14	0xbea3bc97	-0.3197982
15	0x3e0f0e39	0.1397027

weight f4 [16, 16]
0	0x3ddd529a	0.108067706
1	0x3d8141b0	0.06311357
2	0xbddc0558	-0.10743207
3	0x3dae3ef9	0.08508105
4	0xbd1af506	-0.03783133
5	0xbe4567a4	-0.19277817
6	0xbe7503bf	-0.2392721
7	0xbe15df86	-0.14636049
8	0x3e17dfb8	0.14831436
9	0xbe0e7beb	-0.13914458
10	0x3cf538e8	0.029934362
11	0xbd583ade	-0.052790515
12	0xbe1c9588	-0.15291417
13	0x3e85aad1	0.26106885
14	0x3e64e4b1	0.22352864
15	0x3e3228e9	0.17398418
16	0x3e62b493	0.22139196
17	0x3e1473d5	0.14497311
18	0x3e0715f2	0.13191965
19	0xbe631ad8	-0.22178209
20	0xbddf86fe	-0.109144196
21	0x3e4ac76b	0.19802634
22	0x3e27b009	0.16375746
23	0x3d9b0c2a	0.075706795
24	0xbe4bd438	-0.19905174
25	0xbd284abc	-0.041086897
26	0xbea4dceb	-0.32199797
27	0xbe5953a0	-0.21223307
28	0xbe30ecd7	-0.17277847
29	0xbdd73f5f	-0.10510134
30	0x3dce1f59	0.10064573
31	0x3e6cb1af	0.23114656
32	0x3c68a215	0.0141988
33	0xbd1914e7	-0.03737345
34	0xbea6d680	-0.32585526
35	0x3e202e9d	0.15642782
36	0x3e1978f3	0.14987545
37	0xbd79df5d	-0.06100403
38	0x3da83a66	0.082142636
39	0xbd0c330b	-0.034228366
40	0x3e452f33	0.19256286
41	0x3e77739b	0.24165194
42	0xbe67119c	-0.22565311
43	0x3d43d5b4	0.047811225
44	0x3d2c34cd	0.042042542
45	0x3e3ae034	0.18249589
46	0xbe3b7adc	-0.18308586
47	0x3e833680	0.25627518
48	0x3d3b2427	0.045688774
49	0x3e4e1869	0.20126499
50	0x3e38a1e3	0.18030505
51	0x3cdef8fa	0.02721833
52	0x3e3deacf	0.18546604
53	0x3dbccebb	0.09219118
54	0xbe9a0930	-0.30085135
55	0xbe2ca2ca	-0.16858974
56	0x3e0ea832	0.13931349
57	0x3e71c955	0.23611958
58	0xbc8aedfc	-0.016959183
59	0xbe971ace	-0.29512638
60	0x3e242739	0.16030587
61	0xbdd7ed5d	-0.1054332
62	0x3cf26d1f	0.029593049
63	0xbe4634db	-0.193561
64	0x3e656cde	0.22404811
65	0x3d461bd6	0.04836639
66	0xbe36616f	-0.17810605
67	0xbc0eed95	-0.008723636
68	0xbcaa3b47	-0.020780219
69	0x3e658a93	0.22416143
70	0xbdb76036	-0.08953898
71	0x3c08905e	0.008335201
72	0x3e15b23b	0.14618771
73	0xbcd01242	-0.025399331
74	0x3d16bc63	0.036800753
75	0xbdf5435a	-0.11975737
76	0xbcca8400	-0.024721146
77	0xbc16beac	-0.009200733
78	0x3e31cfcb	0.17364423
79	0x3e02c501	0.12770464
80	0xbe3595cc	-0.17732924
81	0xbcc811a0	-0.024422467
82	0xbdc5d329	-0.09659416
83	0xbe5621c2	-0.20911315
84	0x3df83489	0.12119395
85	0x3dbfbc7e	0.09362124
86	0x3e564f19	0.20928611
87	0x3e471651	0.19442107
88	0xbe15a8cb	-0.1461517
89	0x3c44e366	0.012017107
90	0xbe3514c5	-0.17683704
91	0x3dcccac6	0.099996135
92	0x3d2f1206	0.042741798
93	0x3e5c5112	0.21515301
94	0xbd4e2692	-0.050329752
95	0xbd3b243f	-0.045688864
96	0xbd83fd27	-0.06444769
97	0x3e7a3cf8	0.2443732
98	0xbe3b9e55	-0.18322118
99	0xbe5c6558	-0.21523035
100	0xbdbee808	-0.093216
101	0xbe2cbcae	-0.1686885
102	0x3e389eb4	0.1802929
103	0xbe01608c	-0.12634486
104	0x3e34a141	0.17639638
105	0xbd2b4438	-0.041813105
106	0xbdc3a38c	-0.095526785
107	0xbda11963	-0.0786617
108	0xbe5e338e	-0.21699354
109	0xbe3d23e5	-0.18470724
110	0xbe7c9e80	-0.24669838
111	0x3d9c0abe	0.076192364
112	0x3d98b5ac	0.07456526
113	0x3e61ad7e	0.22038838
114	0xbe9aff2b	-0.30272803
115	0xbe4e14d4	-0.20125133
116	0x3e40c6a1	0.18825771
117	0xbd8e8d35	-0.06960527
118	0x3dd574fc	0.104227036
119	0xbe73b106	-0.23797998
120	0xbe0ec4a9	-0.13942207
121	0x3e08c270	0.13355422
122	0xbdbcf8bb	-0.09227129
123	0xbdb9cb23	-0.090719484
124	0xbe19ec68	-0.15031588
125	0x3e067477	0.13130365
126	0x3dbd614a	0.09247072
127	0x3e7c794b	0.24655645
128	0xbd051e32	-0.0324995
129	0x3d26064b	0.040533345
130	0xbe31dc94	-0.173693
131	0xbdcf1296	-0.10110967
132	0xbd095ca9	-0.033535633
133	0xbe570fb9	-0.21002091
134	0x3dc743e2	0.097297445
135	0xbb91ee39	-0.004453447
136	0x3de6df7b	0.11273094
137	0xbe829539	-0.25504473
138	0xbe237f28	-0.15966475
139	0x3dbf1195	0.093295254
140	0xbcfac398	-0.030610844
141	0x3c4c5e91	0.012473718
142	0x3dd98be0	0.10622382
143	0x3c095138	0.00838118
144	0x3e9235d4	0.28556693
145	0x3e7e61c8	0.24841988
146	0xbe0e8b33	-0.13920288
147	0xbe6c0dc5	-0.23052128
148	0xbdefbf21	-0.11706377
149	0x3e5448e0	0.20730925
150	0xbca99ad2	-0.020703707
151	0x3dcd8648	0.10035378
152	0xbe50b085	-0.20379837
153	0x3e572295	0.21009286
154	0x3e80ecef	0.25180766
155	0xbc50b688	-0.012738831
156	0xbe662b5b	-0.22477476
157	0x3dbd2803	0.09236147
158	0xbe5fc882	-0.21853831
159	0xbddb7453	-0.107155465
160	0xbdc4321d	-0.09579871
161	0x3dc058dc	0.093919486
162	0x3e4f8c6b	0.20268409
163	0xbd9e01cf	-0.07715189
164	0x3d965549	0.073404856
165	0xbb89812a	-0.0041963058
166	0x3e359e76	0.1773623
167	0xbdf4fccd	-0.119622804
168	0x3e490fd8	0.1963495
169	0xbd0eeff4	-0.034896806
170	0x3d681852	0.05666382
171	0x3cfbd580	0.030741453
172	0x3e563432	0.20918348
173	0xbd8bf6bf	-0.068341725
174	0xbcd1fd8b	-0.025633594
175	0x3d4f71bf	0.050645586
176	0xbe131d9e	-0.14366767
177	0xbe7ccb18	-0.24686849
178	0xbe15101e	-0.1455693
179	0x3c7d54a0	0.015462071
180	0x3db8f0e4	0.09030321
181	0xbe3d1f8e	-0.18469068
182	0xbdd2701c	-0.102752894
183	0xba84b300	-0.0010124147
184	0x3e7776f4	0.24166471
185	0x3c784540	0.015153229
186	0x3e13ce8e	0.14434263
187	0x3dee5ee4	0.11639193
188	0x3e02950a	0.12752166
189	0x3d6c4128	0.057679325
190	0xbd8e2154	-0.069399506
191	0x3da0f034	0.07858315
192	0xbc3710e9	-0.011173465
193	0xbd8f2f74	-0.06991473
194	0x3c5e1a10	0.0135560185
195	0xbc9b46f2	-0.018954728
196	0xbb476899	-0.0030427335
197	0x3e119c05	0.14219673
198	0x3e8c0f50	0.27355433
199	0x3e73719a	0.23773804
200	0xbe9ee7e0	-0.31036282
201	0xbe7100ff	-0.23535536
202	0x3d8fd768	0.07023507
203	0xbd3ebe56	-0.046568237
204	0x3e293746	0.16524991
205	0x3df0f00d	0.11764536
206	0xbc720769	-0.0147722745
207	0xbe81d2dd	-0.25356188
208	0x3e0351be	0.12824151
209	0x3d8b83b4	0.0681223
210	0xbcb649c2	-0.022251967
211	0xbd3f2428	-0.04666534
212	0x3dc80097	0.097657375
213	0x3da8657e	0.08222483
214	0x3d2c3671	0.042044107
215	0x3dc54422	0.09632136
216	0x3dbf7503	0.0934849
217	0x3e34a5a3	0.1764131
218	0xbe487315	-0.1957515
219	0xba4bf028	-0.00077796215
220	0xbccbcd95	-0.024878303
221	0x3e603718	0.21896017
222	0xbd765be6	-0.060146235
223	0x3de95122	0.11392428
224	0xbe7fe5bb	-0.24989979
225	0x3e956b45	0.29183403
226	0xbe9cde44	-0.30638325
227	0xbcd780a5	-0.02630646
228	0x3e49b65d	0.19698472
229	0xbc2a98fe	-0.010412453
230	0xbdfdba9c	-0.123891085
231	0xbe61f8d2	-0.22067574
232	0xbdfc2c5f	-0.123131506
233	0xbe6b4d0d	-0.22978611
234	0xbdeb62a9	-0.11493427
235	0x3dae4b79	0.08510489
236	0xbe914d78	-0.28379416
237	0xbddddb3f	-0.108328335
238	0xbdf29a8c	-0.11845884
239	0xbe4eeb2b	-0.20206897
240	0xbc26c026	-0.010177648
241	0x3cc4a6d0	0.024005324
242	0x3e2fcf97	0.17169033
243	0x3e460b27	0.19340192
244	0x3ded8eee	0.11599527
245	0xbe7a296c	-0.24429864
246	0xbdc0c404	-0.09412387
247	0xbdd14040	-0.10217333
248	0xbdb4631a	-0.088079646
249	0x3e83cf36	0.25744027
250	0xbd95f585	-0.0732222
251	0x3d2ddeb0	0.0424487
252	0x3e4d4498	0.20045698
253	0x3df43f3e	0.11926125
254	0x3e154502	0.14577106
255	0x3da994ea	0.08280356
